model.pt (torch, 431440 bytes, 27 tensors)

embed.weight f4 [46, 64]
000000 c5 14 e2 bb ab 82 ac 3f 9c b0 7d 3f 64 2b f3 3e
       -0.0068994486 1.3477377 0.9909761 0.47494042
000010 0c f3 97 be 87 91 c7 3e 11 1a 17 c0 60 c5 57 3f
       -0.29677618 0.38978216 -2.360966 0.84285545
000020 c1 6b ed 3d 29 88 c1 3d 19 88 b0 3f b4 49 d9 3e
       0.11592818 0.094497986 1.3791534 0.42439044
000030 cf e9 fa 3e 7f 46 bd bf f6 e3 36 3f 25 a7 8e 3f
       0.49006507 -1.4787139 0.7144159 1.1144758
000040 1b 41 9a 3f 2a 4e 3c bd 94 19 b3 3f 2a 50 d2 bf
       1.2051119 -0.04597298 1.3992181 -1.6430714
000050 f7 b5 ee bc 49 14 4a bf b8 56 eb bf df 77 82 3d
       -0.029139502 -0.789372 -1.838584 0.0637052
000060 17 4f 0d bd 42 d8 14 bf 4a 75 56 bf d5 58 84 3d
       -0.034499254 -0.58142483 -0.8377272 0.06462256
000070 61 fa c6 bf 1e 03 21 3f 1c b1 76 bf de 69 3c bf
       -1.554516 0.6289538 -0.96364 -0.7359904
000080 46 b2 fc 3e e3 bd ea 3f 9f 6e d1 bd f5 27 a4 3f
       0.49354762 1.8339199 -0.102261774 1.2824694
000090 93 be af bf a8 d1 a0 3f b1 66 09 c0 a0 37 d1 bd
       -1.3730034 1.2563982 -2.1468928 -0.10215688
0000a0 00 de 9a be 1d 42 dc 3e 7c 38 93 3e 4d d7 5b 3f
       -0.30247498 0.4301919 0.28754032 0.858754
0000b0 e7 d0 7b be 0b 22 04 3f bf 19 25 bf 77 27 c5 be
       -0.24591409 0.51614445 -0.6449241 -0.38506672
0000c0 c7 c3 ab 3f 17 51 0a 40 a9 31 e8 bd 47 81 13 3b
       1.3419122 2.1611993 -0.11337597 0.0022507475
0000d0 f4 77 bc be 8d dc 4a 3f 3b f9 20 be 21 df d5 3f
       -0.36810267 0.79242784 -0.15720074 1.6708719
0000e0 81 55 88 bf 00 f4 9a be 60 c1 9c bf 90 1a 4e 3f
       -1.0651094 -0.30264282 -1.2246513 0.8050928
0000f0 01 0e c2 bf c7 67 22 bf be dd 5d 3e 1b 4c 0d 3f
       -1.5160524 -0.634396 0.21666619 0.5519425
000100 48 ec 87 3f dd ec 04 3f 9c 45 15 3b bd fa 07 40
       1.0618982 0.51923925 0.0022777086 2.1246789
000110 03 7a 5b 3f ad 2b 60 bf 4a 2e 3e bf 52 b4 d5 bf
       0.8573305 -0.87566644 -0.7428938 -1.6695654
000120 fd 07 57 3f 16 c2 24 3d 47 86 13 bf d4 56 69 3e
       0.83996564 0.040224157 -0.57626766 0.22787029
000130 b5 3f 23 be 09 05 85 3d 01 f8 e3 bf 4d ee 90 be
       -0.15942271 0.06495101 -1.781006 -0.2830681
000140 82 e5 1a bf 8b 17 63 bf b5 3f d9 3f 5c 0f 81 be
       -0.6050645 -0.887078 1.6972567 -0.2520703
000150 e6 b0 33 bf 18 4a c3 3f a8 0b 95 3f 6b 4a 00 40
       -0.701918 1.5256987 1.1644182 2.004542
000160 df 52 f1 3c 33 22 33 bf 60 97 fe 3c 60 59 fa be
       0.029458461 -0.6997406 0.03107804 -0.48896313
000170 d5 95 02 bf ff 7f dd 3e 27 aa f6 bf 35 78 64 bd
       -0.51009876 0.43261716 -1.9270676 -0.0557787
000180 3f 2d 0c 3f 22 3b 6c bf 66 71 1a be f7 02 58 3e
       0.5475654 -0.9227773 -0.1508232 0.21094881
000190 a2 96 dd 3e 62 ef 93 3e b1 8c da be 5e 33 96 3f
       0.43278986 0.28893572 -0.42685464 1.1734426
0001a0 c9 e8 40 bc 0d 93 8d bf 35 d6 4a bf 06 6f dd 3f
       -0.01177425 -1.1060501 -0.79233104 1.7299507
0001b0 e5 13 81 3f e2 4e a4 3f 49 f5 57 be af f9 34 3f
       1.0084196 1.2836573 -0.21089663 0.70693487
0001c0 25 b4 40 c0 2a a5 d4 3f e4 46 84 3e 26 a0 56 3f
       -3.0109951 1.6612904 0.25835335 0.8383812
0001d0 23 0b 02 bf 2e 80 02 3f 6d 1b 1f 3d 03 5f 9a 3e
       -0.50798243 0.50976837 0.038844515 0.30150613
0001e0 00 81 63 3f b3 18 5f 3f 87 74 03 bf 82 9b 51 3e
       0.88868713 0.87147063 -0.5134968 0.20469478
0001f0 4a 96 92 bd 61 0e 0a 40 e9 9e 2b bf f3 5a 61 3e
       -0.071575716 2.1571276 -0.6703935 0.2200735
000200 e2 3c ae bf 34 87 16 bf e4 bb f8 3e 86 e9 14 3f
       -1.361233 -0.58800054 0.4858085 0.5816883
000210 c4 86 39 bf f0 ba a0 3f 36 03 f6 bd 5d 21 79 3f
       -0.7247126 1.2557049 -0.12012331 0.97316533
000220 6f 8e 94 bf 61 18 b5 bf a0 1c e9 3d 32 b6 f1 3d
       -1.1605967 -1.4148065 0.11382413 0.11802329
000230 3f 58 13 3f 33 b4 aa 3f 71 6d de 3e 3a ce 59 3f
       0.5755653 1.3336242 0.43442872 0.850803
000240 e0 b3 27 c0 36 5e 1c be 19 eb 0f 3f 18 0d 69 3f
       -2.6203537 -0.15270314 0.56218106 0.91035604
000250 38 de 2f 3e 53 e6 26 3f 85 86 54 bf 6f 6c 13 be
       0.17174613 0.65195197 -0.8301776 -0.14396833
000260 f8 f9 01 40 2f fa a6 bf 2d 7e 8c bd cf a7 36 bf
       2.030882 -1.30451 -0.068600036 -0.71349806
000270 47 57 01 bf 52 77 d9 be f0 61 80 bf 80 54 c0 be
       -0.505238 -0.42473847 -1.0029888 -0.37564468
000280 80 f9 74 3f 2a a8 a6 3f 4d de f4 bf 99 b0 6e 3f
       0.95693207 1.302007 -1.9130341 0.93238217
000290 ac 53 86 3f d3 10 04 bd c1 54 4a 3f f0 f9 9d 3e
       1.0494285 -0.032242607 0.79035574 0.3085475
0002a0 ec 5c 53 bf 57 28 ab 3b 00 9c ed be c7 57 56 be
       -0.8256366 0.0052233147 -0.4640808 -0.20931922
0002b0 b1 25 9e bf 6d 81 58 3f c9 05 90 bf f2 ce 4b 3f
       -1.2355253 0.8457249 -1.1251765 0.7961265
0002c0 01 47 84 3f 19 20 c1 3e 82 06 43 bf 8c c2 a9 bd
       1.0334169 0.377198 -0.76181805 -0.0828906
0002d0 49 b7 ac be e2 58 1f bf c7 0d 19 3f 88 70 39 be
       -0.33733585 -0.62245 0.5978665 -0.18109334
0002e0 bf 72 ec bf d6 3b b7 3f 49 9e 1b 3d 58 f9 cc 3f
       -1.8472518 1.4315135 0.03799275 1.6013594
0002f0 89 ad db be 06 98 80 3f e0 3c fa bd d1 fa a1 bf
       -0.42905834 1.0046394 -0.12218642 -1.2654668
000300 6d 9a b7 bf c7 19 54 3f 9c 8d 1d 3f d6 ce 91 3f
       -1.4344002 0.82851833 0.61544204 1.1391246
000310 44 3d af bf 4b 6e 49 3f 25 d6 1b 3f af 31 03 3e
       -1.3690572 0.7868392 0.60873634 0.12811922
000320 45 f9 1b bf 02 30 a9 bf a3 b3 86 3e 46 d8 a1 bf
       -0.6092723 -1.3217776 0.26308927 -1.2644126
000330 09 c4 4a 3f d3 50 02 3f 25 85 9b be 6b 7e 06 3f
       0.79205376 0.5090458 -0.3037502 0.5253665
000340 dc a0 80 3e 4d e7 ab bf 0f b1 8b be bb f8 9c bd
       0.25122726 -1.3429962 -0.27283522 -0.07664629
000350 65 f7 e5 3f 39 07 d2 be 69 bc fd be 8b f9 e1 bb
       1.7966124 -0.41021135 -0.49557808 -0.006896203
000360 a5 8d 9b be e2 28 e5 3e 05 04 b0 3f 99 bb 38 3f
       -0.30381504 0.44757754 1.3751227 0.7216125
000370 ac 4b 9c bf 36 50 01 c0 fd e7 8e bf 15 bb 9e 3c
       -1.2210593 -2.0205207 -1.1164547 0.019376317
000380 9c 0d f0 3e 2a f3 05 3f a9 02 7d bc aa a4 89 3f
       0.46885383 0.52324164 -0.015442529 1.0753376
000390 34 ee 40 3f 74 6a 3b 3f 38 c0 17 3f 48 73 d5 3e
       0.7536347 0.7320931 0.5927768 0.41689515
0003a0 ce ae 6b 3f 43 7b 0b bf ff f2 c4 3d e3 a5 ad 3e
       0.92063606 -0.5448496 0.0961666 0.33915624
0003b0 0e 89 ae bc 7c 67 81 bf 61 c9 49 bf c8 ee 64 bf
       -0.021305587 -1.0109706 -0.78822905 -0.8942685
0003c0 7e a8 4c bf 2b 52 2a 3f 3b 69 56 3f 74 3a c8 bf
       -0.799446 0.6653163 0.8375432 -1.5642838
0003d0 fa af 4e bf 8d ef b4 3d 5d af 7a 3f 48 fe 17 3f
       -0.8073727 0.08834753 0.97923833 0.5937238
0003e0 c8 d9 b1 3e a9 cc 8a 3e e1 77 35 bf e2 a5 67 3e
       0.34736466 0.27109268 -0.70886046 0.22621873
0003f0 12 0a 84 be dd a1 04 bd 28 d2 f1 be 71 8f 11 3f
       -0.25788933 -0.032380927 -0.4723065 0.568595

blocks.0.attn.in_proj_weight f4 [192, 64]
000000 ce 56 a7 3d 22 d4 af 3d d1 68 67 3c 52 7e 58 bd
       0.081708536 0.08585383 0.014124111 -0.052854843
000010 ce 59 1b 3e a7 1e 9d 3d b9 81 52 3d 03 a2 d7 bd
       0.15170977 0.07671862 0.051393244 -0.10528948
000020 3e a6 0a 3d 7c e0 b4 bd 9e 52 6f bd 18 aa 8a 3d
       0.033849947 -0.088318795 -0.0584284 0.06770724
000030 6a 10 0b 3c 57 bf bf 3c 45 c2 de 3d b1 56 ba 3d
       0.0084878 0.023406668 0.10876898 0.09098566
000040 bb 14 0c 3d f6 91 11 be 16 9b a7 bd 15 8a 89 3c
       0.034199458 -0.14215836 -0.08183877 0.016789475
000050 a3 e3 90 3d 20 c9 41 3d 92 74 e7 bd b6 0f 29 be
       0.07074668 0.04731095 -0.11301531 -0.165099
000060 61 c3 99 3d 03 5a 46 3e ed ee fa bd 6c 2f 94 bd
       0.07507969 0.19370274 -0.12252603 -0.072356075
000070 ed 90 25 3e e3 14 2d 3d f9 0e e4 3c 72 e5 25 3d
       0.16168566 0.042256247 0.02783917 0.04050202
000080 db b4 e8 bd f9 e8 de bd 31 c8 96 bc 69 27 3a be
       -0.113626204 -0.1088428 -0.018406006 -0.18179096
000090 0a bd 88 bd b6 d7 71 3d 2b 6f 02 3e d0 59 be 3d
       -0.06676681 0.05904361 0.1273772 0.09294474
0000a0 c4 ce 39 3e 27 9b f8 bd 31 05 d3 3d f4 bf 48 be
       0.18145281 -0.12138968 0.103037246 -0.19604474
0000b0 cb b5 bf 3d 80 40 c8 bd ea 56 0a 3e c9 d5 b9 bd
       0.09360846 -0.097779274 0.13509718 -0.090739794
0000c0 a2 bf 43 bd 55 a7 a1 3d ae 95 a7 bd 8d a9 09 3d
       -0.047790177 0.07893244 -0.08182846 0.03360896
0000d0 d2 8c 1e bd b3 75 11 be 6a f1 14 3e 0e 5a da bc
       -0.038708515 -0.14205055 0.14545217 -0.02665427
0000e0 16 e9 10 3e eb e4 3b 3e 59 dc 04 3d 6e a5 85 bd
       0.14151415 0.18349044 0.032436702 -0.06525694
0000f0 f0 b0 8e 3c 20 8d 67 3c f4 72 d6 3d 91 e3 46 3d
       0.017418355 0.014132768 0.10471144 0.048556868
000100 cd 44 a4 3d d7 b6 8e 3d c2 89 9c 3d 7e 16 ba 3d
       0.08020935 0.06968468 0.07643463 0.09086321
000110 7c 50 0f bd c6 8e a5 3b 99 6c 01 3a 6f 54 01 bd
       -0.034988865 0.0050524203 0.0004937142 -0.031574663
000120 5c be 09 3e d8 97 09 bd 31 c4 20 3e 86 be 1b 3e
       0.13451523 -0.033592075 0.15699841 0.15209398
000130 e2 c0 ec bc c8 d5 95 bd 96 25 d5 3d 07 30 ab 3d
       -0.028900567 -0.07316166 0.104075596 0.0835877
000140 f4 58 46 bc 15 3f d8 ba e9 f0 d5 bb 9b 61 aa bd
       -0.012106169 -0.0016498292 -0.006528963 -0.08319398
000150 ef aa cf bd 9d a3 06 be 5c 70 d7 bd f4 cc f2 bd
       -0.10140025 -0.13148351 -0.10519478 -0.11855498
000160 f3 ea f7 3d 83 a1 44 3d ba 56 fd bd 4b 56 b3 bd
       0.1210536 0.048005592 -0.123700574 -0.087566935
000170 48 77 9c 3c 78 75 0d 3d e4 90 4f 3d 32 79 a4 3d
       0.019099846 0.034535855 0.050675288 0.08030929
000180 11 d0 83 bc c1 a6 c7 bd 57 78 0c 3d bb 6b 82 3d
       -0.016090425 -0.09748603 0.034294453 0.06368204
000190 52 54 f3 bd 5d d0 ca 3d 32 c9 ae bd 32 18 96 bd
       -0.11881317 0.099030234 -0.08534469 -0.07328834
0001a0 45 a8 b8 3d fc a0 0e be 7f 41 be bd 14 93 c0 bd
       0.0901647 -0.13928598 -0.09289836 -0.09403053
0001b0 ea 41 17 be 99 a7 0d be 86 89 11 3c d0 83 7c 3c
       -0.14771238 -0.13833465 0.008882886 0.015412286
0001c0 83 39 f5 bd a0 8d dc 3d a9 fe 26 be 78 3e 05 be
       -0.1197386 0.107692 -0.16308083 -0.13012111
0001d0 8a 00 30 bd c1 61 4f bd 95 59 a7 3d e0 37 9a bd
       -0.042969264 -0.050630335 0.08171383 -0.075301886
0001e0 13 9b 01 3e ea cb a3 3d 95 fa 04 be 05 37 64 3d
       0.12656812 0.07997878 -0.12986214 0.055716533
0001f0 26 ca 57 3c 7b 58 ef 3d 4b c1 f9 3d de 14 0e be
       0.013170755 0.11686798 0.12195071 -0.13875148
000200 38 21 53 3d 11 5c 44 3c 6d 3b 1b 3d 14 5e b4 bc
       0.05154535 0.011984841 0.03789847 -0.022017516
000210 e4 33 a3 3d 57 ce 19 bb 8b e0 58 bd 78 ed a7 bd
       0.07968882 -0.0023468935 -0.052948516 -0.081995904
000220 74 1d f3 bd ae 89 20 be 57 d0 98 3d 65 9f d0 bd
       -0.11870852 -0.1567752 0.07461613 -0.10186652
000230 4f 31 05 3d ed 6b e6 bd 38 ee 6e bd 96 57 6a bd
       0.032517727 -0.11251054 -0.05833265 -0.057212435
000240 d0 32 98 3d 2b 88 a6 3d a4 ca da 3d cc fe 40 bb
       0.07431567 0.08131441 0.10683182 -0.0029448746
000250 88 81 cf 3a 58 21 9a bd 51 14 42 bd e5 4f d3 bd
       0.001583145 -0.07525891 -0.047382656 -0.10317973
000260 a8 47 e6 3d 79 1a 26 be 0d 5c e0 bd 77 65 b3 3d
       0.11244136 -0.16221036 -0.10955057 0.08759587
000270 12 3f 8d bc 2e dc 15 3e 04 0b 4e 3e 77 64 f9 3c
       -0.017241988 0.14634773 0.2012139 0.030443413
000280 3f 4b a8 3d 99 62 0b bd f2 30 f3 3d db 93 01 3e
       0.08217477 -0.034029577 0.1187457 0.12654059
000290 38 45 c4 bd 44 57 08 be 87 ee 92 bd f0 03 83 3d
       -0.09583515 -0.13314539 -0.07174402 0.063972354
0002a0 20 05 a2 bd 12 dc 83 bd 13 88 78 3d fe a2 96 3c
       -0.07911134 -0.064384595 0.060676645 0.018388268
0002b0 b9 49 0b 3e c8 0a 77 bd e5 83 e7 3d b2 eb a1 39
       0.13602342 -0.060313016 0.11304454 0.0003088392
0002c0 79 eb af 3d 61 39 0b bd ef ed 05 bd ad e3 31 be
       0.08589835 -0.033990268 -0.032697614 -0.17372008
0002d0 dc 8a 3c bc 22 a5 8c bd 99 71 87 bd cc aa 6c 3d
       -0.011507716 -0.06867434 -0.06613464 0.057780072
0002e0 8b a8 4b 3d b0 8b 80 3d 24 13 5c 3b 61 b8 14 3d
       0.049721282 0.06276643 0.0033580745 0.03630865
0002f0 34 8c dc 3d 62 b8 db 3d 22 15 02 3e eb be eb bd
       0.10768929 0.107285276 0.12703374 -0.11511024
000300 d6 1e 2c 3e 51 42 a0 3d 1a d0 e0 bd 73 91 dc 3c
       0.16808638 0.07825149 -0.10977192 0.026924824
000310 5e 7a 95 3c dd ae c3 3d f5 da 9b 3d 98 94 18 be
       0.018246826 0.09554837 0.07610122 -0.14900434
000320 38 2d 26 3e fe 5c 0f be 5c 86 09 be fd 52 f7 bd
       0.16228187 -0.14000317 -0.1343016 -0.12076376
000330 7b bd 91 3c 9a eb ce bc b9 9e 98 3d 07 ef ad bd
       0.017790547 -0.025258828 0.07452149 -0.084928565
000340 97 55 21 bc 5d d2 83 3d 96 bc da 3c a1 6f 5f bb
       -0.009847066 0.06436608 0.026701253 -0.0034093636
000350 e5 00 0c 3d 48 6e a1 3d 7e 71 fb 3d d4 a6 0b bb
       0.03418054 0.078823626 0.12277506 -0.0021309154
000360 96 0b f8 3d 46 80 23 3e ae a8 0a be e9 85 eb 3d
       0.12111585 0.15966901 -0.13540909 0.11500151
000370 d9 b5 2d bb 40 1e 16 be 59 2f 98 bc 70 b5 e3 bd
       -0.0026506095 -0.14659977 -0.018577265 -0.11118591
000380 70 dd b6 bd 22 05 a7 bd 10 d5 11 3e a0 d4 9d bd
       -0.089289546 -0.08155276 0.14241433 -0.077065706
000390 d3 e3 92 3d 91 e7 9d bd 1d 09 0d be 5d eb 36 3e
       0.0717236 -0.077101834 -0.13773008 0.17863221
0003a0 ca e4 f4 bd 7d 88 5a 3d ae 90 09 be 99 aa 78 3d
       -0.119577006 0.05335282 -0.13434097 0.06070957
0003b0 8d f3 99 3d 81 f6 67 bd 1a 45 6a 3d 3b 89 8d bd
       0.07517157 -0.05663157 0.057194807 -0.0691094
0003c0 6e 00 48 be 41 9b e2 bd 35 0e 34 bd ca 34 9d bd
       -0.19531414 -0.110647686 -0.04395886 -0.07676084
0003d0 c9 26 40 bd b8 4a de 3d 0f 04 7b bd bb ee 90 3d
       -0.04691199 0.10854095 -0.061283167 0.07076784
0003e0 a0 0e 04 be 26 16 c7 3d 75 5c 20 3e 92 79 db bd
       -0.12896204 0.09721021 0.1566027 -0.10716547
0003f0 57 bf ce 3d df 27 ed 3d 4d b8 fa bd d2 bb 76 bd
       0.10095089 0.115798704 -0.12242184 -0.060237713

blocks.0.attn.in_proj_bias f4 [192]
000000 36 aa fc bc 32 be 3a bc 7c 68 aa 3c 12 e2 81 bb
       -0.030842882 -0.011397885 0.020801775 -0.0039637173
000010 ad 4e 83 3d 71 75 c7 bc 9b f5 85 3c b5 6b 7b 3c
       0.064114906 -0.024347993 0.016352465 0.015345504
000020 2f f5 48 bd da 19 19 3b 77 25 36 37 4a e4 ab 3a
       -0.04906195 0.0023361356 1.0856768e-05 0.00131143
000030 12 25 13 3d ed e4 d1 ba b3 37 08 3c 61 69 16 ba
       0.035924025 -0.001601366 0.008314061 -0.00057377486
000040 fe 16 45 3d c8 7a 9e bb 06 50 b8 bb 48 61 39 bd
       0.04811763 -0.004836414 -0.005624774 -0.04525879
000050 8d 57 2f bc c6 d4 42 bd c3 8d 1d 3d 47 bb 19 3d
       -0.010702026 -0.047566198 0.038465273 0.037532117
000060 af 3a 22 bb 6d 45 3a 3b b2 f5 54 3c 8a 2c a9 3d
       -0.0024754216 0.0028422729 0.012998031 0.08260448
000070 03 be 4c bb 07 f4 46 3d c9 45 a3 bb 73 df 1b bd
       -0.0031241185 0.048572566 -0.0049826843 -0.038054895
000080 76 e0 80 3c 13 7d fb bc 4a 5d db bc 3b 19 80 bc
       0.015732031 -0.030699288 -0.026777882 -0.01563703
000090 ff 17 c0 3c b7 d9 27 3d 40 80 92 bb 76 00 05 bc
       0.023448942 0.040979113 -0.004470855 -0.008117786
0000a0 2d 13 d6 bb ba 83 63 3c e6 07 a4 3b 46 39 20 3c
       -0.0065330477 0.0138863865 0.0050058244 0.00977928
0000b0 0f 03 c7 3c 4e 0d 22 bd d9 37 6f bc dc a9 b4 3c
       0.02429345 -0.03956347 -0.014600717 0.022053652
0000c0 bf 92 bf 3c 43 00 9e b9 88 6f de 3b 57 72 4a 3c
       0.023385404 -0.00030136303 0.006788198 0.012356362
0000d0 be ff 10 3c 39 2a cf b8 97 a5 5c bc 4a bd 3a bc
       0.008850036 -9.878394e-05 -0.013467214 -0.011397669
0000e0 bb ed 06 3d 11 6a a4 38 ce 68 8e 3c d2 2b 24 bd
       0.03294156 7.839886e-05 0.01738396 -0.040080853
0000f0 78 d8 cc bb d2 c0 ce bc ed 59 ac 3b 35 39 9d bc
       -0.006251391 -0.025238428 0.0052597434 -0.019192318
000100 95 f8 4c bb 76 fa 4e b8 38 96 e7 39 4b c9 37 bb
       -0.0031276096 -4.9347487e-05 0.00044171675 -0.0028043564
000110 3b d6 1e bb 05 5f 29 3b 27 7f 29 bb e8 bb 74 ba
       -0.0024236578 0.002584399 -0.0025863142 -0.00093358615
000120 39 0b c4 39 ba cf 60 3b 6b e7 63 3b 1f ae c8 ba
       0.00037392395 0.0034303502 0.0034775387 -0.0015310681
000130 b1 9c 39 bb d2 6c c3 ba e5 f0 a6 3a c3 56 7f 3b
       -0.0028322155 -0.001490975 0.0012736587 0.0038961626
000140 a3 15 32 3b 63 19 13 bb 75 25 44 b9 3f 0e 17 3b
       0.002717354 -0.0022445552 -0.0001870597 0.0023049263
000150 7c f2 bd 3a 40 8b 89 3a 44 2f 89 bb 13 28 c8 3a
       0.0014491822 0.001049377 -0.0041865427 0.0015270732
000160 95 35 0a 3b df a7 8d 39 1e 99 46 37 82 e4 25 3b
       0.0021089066 0.0002701869 1.183737e-05 0.0025313203
000170 eb 9c 0b bb 38 c7 55 ba ba e2 f5 39 15 3a ab 38
       -0.0021303247 -0.0008154991 0.00046898966 8.164734e-05
000180 29 d6 32 3a 92 ae 29 b8 3a 60 bd 38 8d 95 54 3a
       0.00068220735 -4.045532e-05 9.030146e-05 0.0008109443
000190 3c 84 d1 39 2d fb cd ba 96 91 ce b8 17 5d a4 bb
       0.0003996211 -0.0015715115 -9.849963e-05 -0.00501598
0001a0 13 9f e8 b9 c6 2e 3c 3a 86 38 86 bb 45 e1 bb 3a
       -0.00044369008 0.00071786006 -0.0040960936 0.0014334103
0001b0 c8 95 8e 3b d8 34 be ba 49 a4 fd ba 76 66 36 3b
       0.0043513514 -0.0014511598 -0.0019351329 0.0027832068
0001c0 9e d0 67 3a be 52 54 bb eb b2 2a 3b c2 08 3c 3b
       0.0008843037 -0.003239795 0.0026046585 0.0028691744
0001d0 86 71 9c 3a b4 a6 e6 39 39 73 ed ba 60 ec 3b bb
       0.0011935688 0.00043993222 -0.0018116004 -0.0028674826
0001e0 12 59 ba ba 48 e2 9a 3b cb e2 e9 3a 8c 9c a6 3a
       -0.0014217219 0.004726682 0.0017844079 0.001271145
0001f0 36 cf af ba 73 e6 93 bb a2 3b b7 ba fd c0 cf ba
       -0.0013413194 -0.0045135557 -0.0013979564 -0.0015850362
000200 8a b0 93 bb 1b 57 86 3b 05 b5 99 3c a8 83 2c bc
       -0.004507129 0.0040997392 0.018763075 -0.010529436
000210 2e a6 59 3b 1a 4e 20 3c 2a c1 f4 3c 55 9d ec 3c
       0.0033210623 0.009784246 0.029877264 0.028883616
000220 24 19 d7 bc 70 ea 3e bc 18 ff be bb 63 3a 7a 3c
       -0.026257105 -0.011652574 -0.0058287494 0.01527271
000230 8c 84 c1 bb 77 50 c6 ba 0f 91 87 bc b4 00 c2 3b
       -0.0059056934 -0.0015130182 -0.016548662 0.005920494
000240 49 57 28 3c 9d b0 55 bc db e7 c8 bc f8 ea 5f bb
       0.010274717 -0.013042596 -0.02452462 -0.0034167152
000250 1c 02 ff 3b 75 df 65 bc 17 94 1e bc 4f 2e c8 ba
       0.007782234 -0.014030327 -0.009678862 -0.001527259
000260 c4 9f ab bc d0 18 08 bb bb e6 ad 3c 9a f7 70 3c
       -0.020950206 -0.0020766743 0.021228185 0.01470747
000270 7e 54 85 3b 38 e9 81 3c db 5c 9d bb 20 44 b9 3b
       0.00406891 0.015858278 -0.004802329 0.005653873
000280 60 31 81 ba c7 81 1d 3b 31 26 30 3c cf 63 9a bc
       -0.0009856634 0.0024033652 0.010751293 -0.01884642
000290 1c 06 74 3c af c6 c2 bb a6 a9 f7 3b c1 3a 6b 3c
       0.014894035 -0.005944095 0.0075580655 0.01435727
0002a0 5d 07 8f 3c 00 34 fc bb 4a 28 86 bb c4 67 b7 bb
       0.017459566 -0.0076966286 -0.0040941583 -0.0055970866
0002b0 55 ff 00 b9 6f 1e 25 bc 2a 14 85 3a 47 3c 76 3b
       -0.0001230215 -0.010078057 0.0010153104 0.003757255
0002c0 0c 7d de 3b a0 f4 04 bc 17 80 a3 3b 55 72 cd bb
       0.006789809 -0.008114964 0.0049896347 -0.006269733
0002d0 c1 9e 8c 3a 73 b7 93 3a a4 4e 5c bc 1a 47 8b bc
       0.0010728465 0.0011269882 -0.013446484 -0.017001677
0002e0 16 ab 2b 3c 44 da f8 ba 06 20 61 bb de 52 6d bc
       0.010477802 -0.0018985947 -0.0034351363 -0.014485089
0002f0 c8 e5 bc 3c 98 cc 25 3c 92 83 27 bc c1 1d 22 bc
       0.023058787 0.01011958 -0.01022424 -0.009894789

blocks.0.attn.out_proj.weight f4 [64, 64]
000000 0c b1 03 3e c0 75 9f 3d 1d 4b 9a bc 17 2d 93 3d
       0.12860507 0.07786131 -0.018834645 0.071863346
000010 e7 6d a9 3d 04 b2 ae bd 9d 6c a6 bc a9 b8 a5 bd
       0.08272915 -0.085300475 -0.020315463 -0.08091862
000020 f2 4d a7 3d 91 8d af 3d 6e ad 2f bd c2 20 f5 bb
       0.08169164 0.085719235 -0.042890005 -0.0074807117
000030 8b 9c a7 bb 24 04 69 bc 87 6c 14 be 9a 4c b7 bd
       -0.005115097 -0.014222179 -0.14494525 -0.089501575
000040 6a 2a 7a bb 94 4b b9 3d e3 47 5c bd a3 1c 8e bd
       -0.0038172253 0.090476185 -0.053779494 -0.06939056
000050 a5 d4 c3 3d 31 c1 fb bb de d4 b3 3d 6d 2e 7e 3d
       0.09562043 -0.0076829423 0.087808356 0.062055994
000060 4e e5 09 3e ba 2b 31 bd 9f 31 8e 3b 37 f7 bb 3b
       0.13466379 -0.04325459 0.0043394114 0.0057362574
000070 12 c1 36 3d 0b f9 8d 3d 8a 3c 99 3c c7 9c 04 be
       0.04461772 0.06932267 0.018705625 -0.12950431
000080 b4 cc a5 bd e8 70 2d bd e9 dc 18 bd 82 30 b8 3d
       -0.08095685 -0.042344004 -0.03732005 0.08993627
000090 fc 1a 5a 3d 6d f1 4b 3d 3e 88 0d be 85 09 0b 3e
       0.05324839 0.04979079 -0.13821504 0.1357785
0000a0 8f 7c ba bd c4 96 84 bd 9b 3d 1c 3e 0f 68 55 3d
       -0.09105789 -0.06474069 0.15257876 0.05210119
0000b0 24 7f 1a 3d 04 f4 ee 3d 53 8a 9a 3c c5 a4 97 bb
       0.037718907 0.11667636 0.018864786 -0.0046277964
0000c0 67 aa 75 bc d2 77 1a bd 64 eb a6 bd 94 3f c0 3d
       -0.01499424 -0.037711926 -0.08150366 0.093871266
0000d0 c0 e0 7f bc 9d b3 9f 3d 6c 85 ff 3d cd 10 28 bc
       -0.015617549 0.077979304 0.1247662 -0.010257912
0000e0 b2 3c b2 3a 1f b0 23 3d 31 03 50 bc 29 53 cb bd
       0.0013598411 0.039962884 -0.012696073 -0.09927971
0000f0 57 8f 86 bd 44 f9 90 bd f3 76 91 3d 66 c2 62 3d
       -0.06570309 -0.07078794 0.07102766 0.055361174
000100 1f 12 10 3e f6 db 35 3d 05 16 d3 3a fb bc 76 3d
       0.14069413 0.044399224 0.0016104585 0.06023882
000110 e0 2d c2 bd 8f ea b2 bd 96 14 a9 3d bc 5c e5 ba
       -0.09481406 -0.08736145 0.082558796 -0.001749895
000120 17 11 a5 bc 5e a9 1e 3c 6c 6e 31 3d da 71 de bb
       -0.02014975 0.009683935 0.043318197 -0.0067884745
000130 8b e0 a1 3d b6 87 6a bd ab fb d4 3d 9b 4b 42 3d
       0.07904156 -0.05725833 0.10399564 0.047435384
000140 09 0c f3 3c 41 2a 79 bc 60 2c e5 3d 72 f4 d4 3d
       0.029668825 -0.015207828 0.111901045 0.10398187
000150 3a 64 8c bd aa 30 11 3e 4c ac ae bd 1f 6d bb 3d
       -0.06855054 0.1417872 -0.08528957 0.091516726
000160 ef fd c7 3d e2 ba 85 3b bd ca 7e bd dd a2 84 b9
       0.09765231 0.004081116 -0.062205065 -0.00025298345
000170 ad b2 13 bd 2f 98 da bd 67 16 0e be 25 02 b2 3d
       -0.03605907 -0.10673558 -0.13875733 0.08691815
000180 91 56 b3 3d af b4 82 bd 7a 7f 9d bd f8 2a a9 3d
       0.087567456 -0.06382119 -0.0769033 0.08260149
000190 41 e5 bd b9 fe 2e 49 3d 87 fa da bc d4 ea 13 3c
       -0.00036219697 0.04911708 -0.026730789 0.009028155
0001a0 4f b3 e6 bd 8b 8e 19 3e 6f e9 a0 3d 1f 64 df bd
       -0.11264669 0.14995782 0.07857024 -0.109077685
0001b0 bc 0d cc 3d 7f 41 e2 3c 57 1e 80 bd 6e f8 be 3c
       0.09963557 0.027619122 -0.06255787 0.02331182
0001c0 fb 63 10 be fb b9 43 bd f6 3e f9 bd 69 bd c1 3d
       -0.1410064 -0.047784787 -0.12170212 0.09459955
0001d0 71 5c ae 3d 04 53 93 bd 3d 81 ec bc 51 07 96 3d
       0.085137255 -0.07193568 -0.02887022 0.07325614
0001e0 0c 59 9a bd cb 06 2e 3d 61 f9 29 36 cb 65 a1 bd
       -0.075365156 0.042486947 2.532812e-06 -0.078807436
0001f0 3d c7 de bd 5e 58 97 bd dd f2 14 3e 57 17 2d be
       -0.108778454 -0.073899016 0.1454577 -0.16903435
000200 e5 d6 14 3e fb 42 c8 3a da c9 9c bd 95 4b fc 3d
       0.14535101 0.0015278751 -0.07655688 0.12319104
000210 cc e4 be 3d f4 82 b8 bd 4a 29 33 bd dc 9d 88 bd
       0.09320983 -0.09009352 -0.04374055 -0.06670734
000220 42 f6 cf bb ff 0d 7e 3d 97 0a b4 bd be d7 f8 bc
       -0.006346495 0.062025066 -0.08791082 -0.030376311
000230 47 1c 64 3c 47 2c 77 3d e1 11 27 3e 33 09 07 be
       0.0139227575 0.06034496 0.16315414 -0.13187103
000240 87 90 bb 3c 02 6d e4 3d 35 5c 03 3d 58 e3 38 bd
       0.022896064 0.11153604 0.032070357 -0.045138687
000250 8e 7e 1b be 6f ee 91 3d b6 81 ed bb e4 23 03 be
       -0.15184996 0.07125556 -0.0072481288 -0.1280666
000260 2f 38 04 be 79 ce c4 bd cf 4d 31 3d a7 f3 a3 3c
       -0.12912057 -0.09609694 0.043287095 0.020013643
000270 2c 98 d8 3d 3e 9e af bc e5 9b 46 bd 50 ea 63 bd
       0.105758995 -0.02143776 -0.048488516 -0.05564338
000280 3b 6a 9b 3b 81 b0 82 bd 84 b5 52 3d 87 1b bc 3d
       0.0047428883 -0.06381322 0.051442638 0.09184938
000290 4f fa 3b 3d d7 1b b6 3c f0 48 22 be 66 fd 0b 3e
       0.04589301 0.022230072 -0.15848136 0.13670883
0002a0 bc 4e e4 bc 56 02 d5 3c 61 3b b2 3d e9 8a ac 3c
       -0.027869575 0.02600209 0.08702732 0.021062331
0002b0 1f d9 ad 3c 39 3a b1 bc 00 34 27 3c 21 11 c2 3d
       0.021221695 -0.021634208 0.010205269 0.09475923
0002c0 99 9c c8 3d 7b 70 d1 bc 02 b3 3d 3d d4 93 04 3e
       0.09795494 -0.02556633 0.046313293 0.12947017
0002d0 d7 86 ee 3d d1 81 7e 3d 6e 5b 9b bd 4f 0a c4 3c
       0.116468124 0.06213552 -0.07585798 0.023930697
0002e0 99 63 60 3d 6b 85 27 3e 90 ba 6f bd 86 23 f6 3c
       0.054782484 0.16359489 -0.05852753 0.030046236
0002f0 cf df 07 be 71 1c e0 3d 3a aa cb 3c b8 3f ac 3d
       -0.1326897 0.10942925 0.024861444 0.08410591
000300 a5 16 db 3d 1d fe c2 3d 76 fb 85 3d 08 21 c4 3d
       0.106976785 0.095211245 0.06542103 0.09576613
000310 31 59 9a bd 3d 8f d6 bc 63 aa a7 bb 9c 12 eb bd
       -0.07536543 -0.026191348 -0.005116747 -0.11478159
000320 2b da 5d bd 88 8a 32 bd 08 df 98 bd 70 a3 a0 3c
       -0.05416314 -0.043589145 -0.07464415 0.019609183
000330 a3 14 ab 3d 19 0a ea 3d 14 93 7d bc 17 68 06 be
       0.083535455 0.11427707 -0.015476961 -0.13125645
000340 ad fd fe bd 1f ac e5 3d c0 b5 c1 3a 64 00 6f 3d
       -0.124507286 0.1121447 0.0014778897 0.058349982
000350 ff e6 bb 3d e4 9d 7d 3b 81 07 c7 bc 26 cf 01 be
       0.091749184 0.0038698846 -0.02429557 -0.12676677
000360 94 93 ed bd 00 41 eb bd 2b 90 f8 3d 39 55 76 bd
       -0.11600414 -0.11487007 0.12136873 -0.06013987
000370 9c 11 30 bd 77 b7 05 bd 5b b5 d2 3d 75 50 02 bd
       -0.042985544 -0.03264567 0.10288497 -0.03181501
000380 c7 e4 96 bd c2 9b bd ba 8a ae 3a 3d d5 fc 10 bd
       -0.073678546 -0.0014465975 0.04557661 -0.03539737
000390 60 d2 e9 3c dd f2 cf bc 52 f7 b6 3d e2 52 90 3d
       0.028542697 -0.02538436 0.08933891 0.07047059
0003a0 38 de 59 bd 55 1f 94 3d a4 8c 2c be 11 1d 86 bd
       -0.05319044 0.072325386 -0.16850525 -0.06548513
0003b0 ba c3 06 bd df 5a 34 3d 77 60 10 bc 59 5c 4f 3d
       -0.032901503 0.044031974 -0.0088120615 0.05062518
0003c0 84 2c 2e bd 70 28 bd 3d ac 58 c1 bd fd 02 ed bd
       -0.042522922 0.092362285 -0.09440741 -0.115728356
0003d0 01 7a b5 bd d2 86 09 be c2 d3 a8 bd 80 36 00 bd
       -0.08861161 -0.13430336 -0.082435146 -0.031301975
0003e0 75 5e 1a be 21 7d cd bd 1d b5 0b 3e 71 ea b3 bd
       -0.15075095 -0.10033632 0.13643308 -0.087849505
0003f0 2a fa a0 bc 6d 0a 31 3c 2e 2c 93 3c 4d ff c5 3d
       -0.019650538 0.010805708 0.017965402 0.096678354

blocks.0.attn.out_proj.bias f4 [64]
000000 31 f3 c6 bc 89 8d 15 bc 76 54 16 3c 9a 4f 3e bc
       -0.024285885 -0.009127983 0.0091754105 -0.011615658
000010 cc 70 5a 3b 01 d7 99 3b bc e9 72 3c ad 33 42 bc
       0.0033331392 0.00469482 0.014826234 -0.011853141
000020 c2 7c da bb 15 16 79 39 27 6b a1 39 67 92 fe 3b
       -0.0066677043 0.00023754717 0.00030788148 0.0077689174
000030 09 8f 70 ba e3 06 6d 3b 52 df 80 3b 8c 07 c6 ba
       -0.00091765873 0.0036167435 0.003932872 -0.001510845
000040 37 5e 76 bb 64 fe 3e bb d2 08 30 39 53 08 60 3c
       -0.0037592778 -0.0029143328 0.00016787954 0.01367386
000050 0a f9 61 3b d0 07 93 3b a8 c2 9d 3b 6c a8 4c bc
       0.0034480714 0.0044870153 0.0048144646 -0.012491327
000060 c7 3a 16 3c 2f 58 51 3c fa f2 25 3c 8f ca a9 bc
       0.009169287 0.012777372 0.010128731 -0.02072647
000070 11 03 90 bb 68 07 b6 ba 1f c4 e6 3b ae 9e 0e bc
       -0.004394897 -0.0013887705 0.0070424224 -0.008704824
000080 0d 30 45 bc a3 be aa bb a7 3c c5 3a 75 d3 48 3c
       -0.012035382 -0.005210714 0.0015047983 0.012257447
000090 82 6f d5 bb 62 92 d5 3b 23 b9 a2 bb 0b ca 52 3a
       -0.006513537 0.0065176943 -0.0049659177 0.0008040971
0000a0 fb 0b aa 3c 41 f0 44 3c a0 1b 0d 3b ed 5a 75 bc
       0.020757666 0.012020172 0.0021531358 -0.014975292
0000b0 24 1b db 39 58 37 01 3c 43 6a c8 3b ea 1e 47 bc
       0.00041791156 0.00788673 0.006116183 -0.012153367
0000c0 a0 49 28 3c 06 9f cb bb ee 18 00 ba 89 ab a0 bb
       0.01027146 -0.0062140254 -0.00048865273 -0.004903261
0000d0 2b 79 01 3a b0 44 8c 3b a2 83 7e 3b 67 17 dc bb
       0.0004939015 0.004280649 0.0038835783 -0.006716657
0000e0 d3 c2 13 ba ed df 0c bc 7f b8 9c ba 75 a1 29 bb
       -0.0005636636 -0.00859831 -0.001195684 -0.002588359
0000f0 e9 05 cd 3b 13 6d fa bb 64 35 e6 bb ee 01 e3 3b
       0.006256808 -0.007642397 -0.0070254076 0.0069277203

blocks.0.ln1.weight f4 [64]
000000 20 58 7e 3f bd bb 80 3f ba 51 82 3f ff 56 7c 3f
       0.9935322 1.0057293 1.0181191 0.98570246
000010 b3 7e 82 3f 2e 8b 78 3f b9 51 78 3f be b1 82 3f
       1.0194916 0.9708737 0.969997 1.0210493
000020 b6 5c 7e 3f 20 56 7c 3f d1 31 81 3f a8 da 7e 3f
       0.99360216 0.98568916 1.0093328 0.9955239
000030 93 a3 81 3f 3a cc 81 3f 68 c1 7b 3f bf c4 80 3f
       1.0128044 1.014045 0.9834199 1.0060042
000040 49 ef 7e 3f 78 e9 7f 3f fa 17 78 3f 2d 89 82 3f
       0.9958387 0.9996562 0.96911585 1.0198113
000050 13 e6 76 3f 61 f3 81 3f 53 55 81 3f c8 aa 7f 3f
       0.96444815 1.0152398 1.0104164 0.99869967
000060 2b 6a 7b 3f f5 80 7b 3f a5 51 7c 3f 61 48 7c 3f
       0.98208874 0.9824365 0.9856208 0.9854794
000070 bc 34 7b 3f ca 95 80 3f 21 27 80 3f 4c 5e 83 3f
       0.9812734 1.0045712 1.0011941 1.0263152
000080 16 9e 84 3f 24 be 80 3f f5 3a 80 3f f8 e4 77 3f
       1.0360744 1.0058026 1.0017992 0.96833754
000090 20 f0 80 3f de b3 83 3f 38 d8 7b 3f 4e 2f 83 3f
       1.007328 1.0289266 0.983768 1.0248811
0000a0 99 e3 81 3f d6 29 80 3f 52 d8 7d 3f 2d 32 7d 3f
       1.0147582 1.0012767 0.99158204 0.9890469
0000b0 9d d0 83 3f 77 fd 83 3f 15 25 84 3f 87 a9 76 3f
       1.0298039 1.0311726 1.0323817 0.9635243
0000c0 60 b6 7c 3f 16 f2 7a 3f 48 be 79 3f 70 df 80 3f
       0.9871578 0.98025644 0.9755597 1.0068188
0000d0 67 8d 80 3f a6 a0 80 3f 59 7a 7b 3f a4 41 7c 3f
       1.0043153 1.0049026 0.9823356 0.9853766
0000e0 00 75 81 3f fe 1a 85 3f c3 87 81 3f 5f 63 81 3f
       1.011383 1.0398862 1.0119556 1.0108451
0000f0 d3 71 80 3f 4d 0b 80 3f 72 c3 82 3f 25 82 85 3f
       1.0034736 1.0003449 1.0215895 1.0430342

blocks.0.ln1.bias f4 [64]
000000 d6 d4 a0 bc 88 e2 12 bc 0e 07 2c 3c ab 25 55 bc
       -0.019632738 -0.008965142 0.010499729 -0.013009469
000010 e8 4f 26 3b 3d fb 07 3b e2 9c 70 3c 6d a4 6c bc
       0.0025377218 0.0020749115 0.014685841 -0.014443499
000020 0d d7 fa bb 97 54 0f ba 65 68 65 3b 03 1a 7b 3b
       -0.0076550306 -0.0005467622 0.003500485 0.0038315065
000030 26 83 16 3b 35 a5 29 3b 68 c9 9d ba 5e 53 07 bb
       0.0022966354 0.0025885825 -0.0012038173 -0.0020649056
000040 c0 3d 67 3a ef 5c be bb f8 27 1b ba c7 d9 2a 3c
       0.0008821152 -0.0058094184 -0.00059187366 0.010427899
000050 b2 41 8b 3b 24 e6 a4 3b 3f 37 0d 3c 82 2e 5a bc
       0.004249775 0.0050323177 0.008619129 -0.013316752
000060 f8 a7 26 3c 2b 7f 3d 3c 8b 05 2f 3c 50 4f 73 bc
       0.010171883 0.011565964 0.010682474 -0.014850453
000070 5f ac 3c ba c6 91 e5 ba ad 65 d2 3b 49 a5 9c bb
       -0.0007197316 -0.0017514757 0.006420812 -0.0047804457
000080 84 28 da bb b2 a0 c4 bb 91 03 73 3b a3 43 17 3c
       -0.006657662 -0.0060006017 0.0037080983 0.009232434
000090 e1 7b b1 bb c4 89 10 3c 77 f0 3d 37 ce 39 3a 39
       -0.005416379 0.008821908 1.1321265e-05 0.00017759876
0000a0 8a 6a 97 3c 57 29 fc 3b 5b ed b6 3b 2f 7a 6e bc
       0.018483419 0.007695358 0.005582494 -0.014555498
0000b0 ca 11 47 bb 36 b7 dc 3b ec 43 e8 3a 83 85 37 bc
       -0.0030375593 0.0067357076 0.0017720438 -0.011201265
0000c0 5d 00 f0 3b 9e 6f 82 bb 85 86 2e ba 0e 19 07 bc
       0.007324262 -0.003980591 -0.0006657618 -0.00824572
0000d0 61 97 6b 3b d0 92 c1 3b 1a a8 cc 3a 18 d4 1e bb
       0.0035948383 0.005907394 0.0015614063 -0.0024235304
0000e0 11 11 91 bb 7a a6 00 bc 9a 05 47 39 30 b2 2c bb
       -0.0044270833 -0.007852191 0.00018980206 -0.0026351325
0000f0 a9 50 06 3c ea 51 90 bb 47 3b 07 bc 56 80 1d 3c
       0.008197942 -0.004404296 -0.008253879 0.009613117

blocks.0.ff.0.weight f4 [256, 64]
000000 00 df 59 bc 6f e4 1b bd c4 45 90 bc b5 33 f5 bd
       -0.013297796 -0.038059648 -0.017611392 -0.11972753
000010 ea ec d3 bd 41 00 ef bd d6 00 e1 3d 8d be 50 bd
       -0.10347922 -0.1166997 0.109864876 -0.050962973
000020 12 a7 55 3c c6 bb d0 3d 70 fc f9 bd 6d 14 fa 3d
       0.013040321 0.10192065 -0.12206352 0.12210927
000030 2c 77 85 3d a6 2b 84 3d 98 b2 08 3e 38 3b f7 bd
       0.06516871 0.06453638 0.13349378 -0.12071842
000040 6d 02 9f 3d 48 51 05 3e fc a6 d9 bb b9 e8 87 bd
       0.077641346 0.13019288 -0.0066422205 -0.06636185
000050 aa c6 3b bc 0a f9 7d bd cc 7a 15 3e c5 2f 05 be
       -0.011460939 -0.06200508 0.14597625 -0.13006504
000060 60 04 d0 3c c4 23 b4 bd 51 4f f0 bc 9f 7a bd bd
       0.025392711 -0.08795884 -0.029334696 -0.09251904
000070 95 72 b2 bd d8 61 1b 3b 93 9c 93 3c 5e 42 01 be
       -0.08713261 0.0023709442 0.018018996 -0.12622973
000080 68 80 d0 bc 83 73 29 3d be b1 41 3d 6c de e8 3c
       -0.025451854 0.041369926 0.04728865 0.028426372
000090 f1 fe a3 bd 9a 42 59 bd 72 e3 b2 3d 31 5c 62 bd
       -0.080076106 -0.05304203 0.08734788 -0.0552637
0000a0 ab 59 e0 3d 62 db d8 3d 76 1b 43 3b ba 5c 0c be
       0.10954603 0.10588719 0.0029771007 -0.13707247
0000b0 96 ed b1 3d 0d bd f1 3d 23 42 0f be 36 b1 13 3e
       0.08687894 0.11803637 -0.13990073 0.1442307
0000c0 e9 e6 06 be 88 a3 5f bb b2 96 40 bd 12 e1 f0 bc
       -0.13174023 -0.0034124572 -0.047018714 -0.029404197
0000d0 28 42 cf 3d 42 b8 ec 3c 30 ef fc 3d 9f 67 83 3d
       0.1012004 0.028896455 0.12350309 0.064162485
0000e0 a7 84 10 bd 1d ff be bd 42 89 9d bd 4f 6d f6 bd
       -0.035282757 -0.09326003 -0.076921955 -0.12032568
0000f0 b2 cb 80 3d 6f 0c cc 3b 1b db f6 3d e6 a8 3a bd
       0.06288852 0.006227068 0.1205351 -0.04557123
000100 cb 30 92 bd ae 04 a4 bd 15 81 8d 3d 08 9a 8c 3d
       -0.07138213 -0.08008705 0.06909386 0.06865317
000110 aa a0 c9 3c fe 99 bf bd 45 1a 54 bc 2e 62 b7 3d
       0.024612743 -0.093555436 -0.012945716 0.08954273
000120 7c 6f f5 bd df a9 18 3d df 83 b5 bd 31 98 04 bd
       -0.119841546 0.037271377 -0.08863043 -0.032371704
000130 15 ee 2f bd 6e c9 cf bd 58 be e1 bc 40 65 9e 3c
       -0.042951662 -0.101458415 -0.027556583 0.01933539
000140 be 41 27 3c 27 95 bc bd b6 8d 04 bd eb 7e 89 bd
       0.010208545 -0.09208136 -0.03236171 -0.06713661
000150 5f 8c 66 3d d3 fc 6d 3d 93 77 5f 3a 96 3b de 3c
       0.056286212 0.05810244 0.0008524593 0.027128022
000160 64 f7 60 bd 4a 02 89 3c 0e 86 ca 3d 9f fc 69 3d
       -0.05492343 0.016724724 0.0988885 0.057125684
000170 a9 cf 1c bd 41 77 9c bc f0 2a b7 3d 23 e4 ba bc
       -0.038283978 -0.019099833 0.089437366 -0.022813862
000180 6f 92 51 bd 78 4f d8 bd 04 e6 b6 bd e9 33 a7 3d
       -0.05116504 -0.105620325 -0.08930591 0.08164198
000190 5d 56 b2 3c 8b ad b1 3c 70 44 be bd 10 1f 5b 3d
       0.021769697 0.021689197 -0.09290397 0.05349642
0001a0 f2 38 3f bd 92 5e 15 bd 14 21 7b 3d 96 b2 86 3d
       -0.046685167 -0.036467142 0.061310843 0.06577031
0001b0 99 dd 1a bd ec 3d 32 bd e3 4e e2 bc 54 35 98 bc
       -0.03780899 -0.043516085 -0.027625507 -0.018580116
0001c0 2a 24 8a bd 52 cb 86 3d 12 38 92 bd 89 de 4e bb
       -0.06745179 0.06581749 -0.07139601 -0.0031565747
0001d0 fd 75 c0 bd 86 0b 98 3d 69 76 b6 3d 23 ee d6 bd
       -0.093975045 0.07424073 0.08909304 -0.1049464
0001e0 a2 d9 c1 bc 49 fe 59 bd 9a 7e 04 bd fe 90 a5 3d
       -0.023663346 -0.05322102 -0.0323473 0.08084296
0001f0 9b e6 cf bd b7 e7 b2 bd d4 3a e9 bc 6f 6f 55 3d
       -0.101514064 -0.08735602 -0.028470434 0.052108224
000200 1b dd 7b 3d 0b fa 0d bd a3 12 22 bd e8 0f c6 3d
       0.06149016 -0.034662288 -0.039568555 0.096710026
000210 8a c4 ca 3d 7e fc c5 bd e3 91 04 be 11 c6 d4 3b
       0.09900768 -0.096673 -0.12946276 0.006493338
000220 47 ef 7f bd 64 94 97 bd 4f b6 e1 3d b9 3f b5 3d
       -0.062484052 -0.0740135 0.11021101 0.08850045
000230 85 e4 a8 bc 2b 80 b4 3c e7 cb b8 bd fd 1e a2 3d
       -0.02061678 0.022033771 -0.09023266 0.07916067
000240 d7 32 c4 bc 62 17 41 3d f7 d1 12 bc eb 2f b2 3d
       -0.023950024 0.04714144 -0.008961192 0.08700546
000250 0c 4c a4 bd dc ba 0b bd d2 c7 4f 3d 4c 9b 58 3d
       -0.08022317 -0.03411375 0.050727673 0.052882478
000260 8c 3a 02 3d ff db 7a bd 7c 99 ca bd f7 8e 26 ba
       0.031794116 -0.06124496 -0.09892556 -0.0006353701
000270 a7 8d c6 bc 95 61 89 bd 92 fd b2 bd fa 46 03 3e
       -0.024237467 -0.067080654 -0.08739771 0.12820044
000280 a8 e3 89 3c 17 0b cf 3d 43 d1 e7 bd 01 b2 c8 3c
       0.016832188 0.10109537 -0.113192104 0.024498941
000290 f6 46 16 3d ed c6 42 bd 7d 6e a5 3d 44 9e b8 bd
       0.036688767 -0.04755299 0.080777146 -0.09014562
0002a0 fe 59 17 be b3 62 d2 bd 8e 70 0a 3d 38 dc c9 bd
       -0.14780423 -0.10272732 0.033798747 -0.098564565
0002b0 fa 93 2d bd 6e ac d3 bc e6 f2 aa bc a7 fe fd 3d
       -0.04237745 -0.025839057 -0.020867776 0.12402087
0002c0 03 6a 9d 3d ac 42 af bd 4e fd 86 bd ab 9b 39 3d
       0.07686236 -0.085576385 -0.06591283 0.045314472
0002d0 e5 3b be bb f4 ce 9f bd ce bd cf bd dd 8d e2 3d
       -0.00580548 -0.07803145 -0.10143624 0.110622145
0002e0 c9 01 0f bd 34 92 00 bd 71 63 a1 3d ea 99 e8 3d
       -0.03491381 -0.03138943 0.07880295 0.11357482
0002f0 5f e8 b9 3d 55 76 e1 bd 78 b9 88 bd e0 f2 12 3d
       0.090775244 -0.11008898 -0.06676 0.035876155
000300 15 b2 d7 bd 0c 14 fa 3d 37 0d 56 bc a6 0a 4c 3c
       -0.10532013 0.12210855 -0.013064674 0.012453711
000310 4c 04 c8 3d 54 bb 52 bb 57 b1 80 bd 0b 1e 56 bd
       0.097664446 -0.0032155113 -0.06283825 -0.052274745
000320 a5 dc 9b bd 76 c0 dc 3c 65 a3 2c bd 18 44 ce bc
       -0.07610444 0.026947241 -0.042148013 -0.025178954
000330 68 13 07 3e fb 27 11 bd 48 f1 ab 3d 9f 21 01 3d
       0.13190997 -0.03543852 0.0839563 0.031526204
000340 61 38 b1 3c 86 29 ea bd 22 9a 90 3d 67 e0 1d 3d
       0.021633329 -0.11433701 0.070606485 0.038544085
000350 c3 a1 0c be 76 a1 37 3d eb dd 76 bd 16 7f 18 3d
       -0.13733582 0.044831716 -0.06027023 0.037230574
000360 d6 d9 28 3d b1 bf 9f bd c2 82 a6 bc d4 fd 1b 3c
       0.04122337 -0.07800234 -0.020326022 0.009520967
000370 12 62 3c bd ec e5 67 bd f3 c9 eb 3c b8 6d 81 3a
       -0.045991965 -0.056615755 0.02878282 0.0009874618
000380 5e c7 2c bd 9f c9 10 3e a0 0a 07 be 30 7f f1 3d
       -0.04218232 0.14139412 -0.13187647 0.11791837
000390 1b e1 d2 bd 80 60 b2 bd f7 d8 86 3a 6c 25 e3 bd
       -0.10296842 -0.08709812 0.0010288049 -0.11091122
0003a0 3c 73 5c 3d 7f 12 c1 bd 87 1e f1 bd f8 06 a5 bd
       0.053820834 -0.09427356 -0.11773401 -0.0805797
0003b0 e4 23 0b be bf 3d d8 bd 22 08 55 bd d3 b4 6f bd
       -0.1358791 -0.10558652 -0.05200971 -0.058522057
0003c0 38 39 23 bd e4 50 c6 bc f4 65 a4 3d 48 f5 ab 3d
       -0.03984949 -0.024208494 0.080272585 0.08396393
0003d0 77 73 2c 3d 65 e6 e7 3b b1 8c 5e bc 09 d4 81 bd
       0.042102303 0.0070770257 -0.013583348 -0.063392706
0003e0 9e b7 37 bd 7d 6b 25 3d b0 aa a9 ba cc 7a 5f bd
       -0.044852845 0.040385712 -0.0012944546 -0.054560468
0003f0 e4 5f 0c be 07 9d bc bc e0 58 63 3d 20 7a 53 3d
       -0.13708454 -0.023024095 0.05550468 0.05163014

blocks.0.ff.0.bias f4 [256]
000000 f6 d9 89 bc 61 4a 84 bd 4b cc b0 3d e6 6a c6 bc
       -0.016827565 -0.06459499 0.08632716 -0.024220895
000010 ce a0 65 3c 1b c9 9a bc 6d ca dd 3d 10 ea 6d 3c
       0.01401539 -0.018894723 0.10829625 0.014521137
000020 07 c4 de bd f7 36 8c 3d d7 f0 85 3d 62 e8 5e bc
       -0.10877233 0.06846421 0.06540077 -0.013605209
000030 24 1e 03 3e 7a 47 eb 3d 4a 2e a8 3c 94 1e 56 bd
       0.12804466 0.114882424 0.020529885 -0.052275255
000040 58 17 d4 3d 9c de 08 bd c3 7c 6a bd 0a 17 1a ba
       0.10356015 -0.03341542 -0.05724789 -0.0005878067
000050 a2 77 62 39 5a e6 b8 3d 5b 70 7a bd 91 67 17 bc
       0.00021597606 0.09028311 -0.061142307 -0.009241001
000060 3d 25 3c 3d 02 fb 97 bd 25 c8 9e 3a b5 39 37 bd
       0.04593395 -0.07420923 0.0012114091 -0.044732768
000070 ad 0e 64 3d 4a a1 8a 3d 11 9c e7 bd 87 a4 95 3d
       0.05567806 0.06769045 -0.11309064 0.07306772
000080 79 65 09 be f9 e0 e9 3d b6 53 ae bc 25 e3 7d bc
       -0.13417615 0.11419863 -0.02128015 -0.01549605
000090 84 81 8e 3d 80 7c 1d bd 97 75 26 3d f2 67 6a 3d
       0.06958297 -0.03844881 0.040639486 0.057228036
0000a0 70 b1 12 3a 53 52 ee 3c 95 08 03 3d 59 08 68 3d
       0.0005595898 0.02909199 0.031990606 0.056648586
0000b0 79 77 e4 bd e4 2b d5 3d 2b b9 57 3d 9d 0f fd 3d
       -0.111556 0.10408762 0.052666824 0.123564936
0000c0 d7 74 8c 3d 61 3e ac 3d ba 90 11 be 57 6c 1c bd
       0.06858223 0.08410335 -0.14215365 -0.03818926
0000d0 d8 6d 47 3c 61 5f 7d bd 2f d3 5a bd 83 4d b9 3d
       0.012172185 -0.06185854 -0.053424057 0.09047987
0000e0 3c 1a 14 bd 3c 8c 91 bd 23 bd 00 3e 8a f4 9f bd
       -0.03615783 -0.07106826 0.1257215 -0.07810314
0000f0 a5 c1 dc bd fb 19 f9 3d 20 da 84 bc 6f 71 d2 3c
       -0.10779122 0.121631585 -0.016217291 0.025688855
000100 b1 ac 97 bd 10 37 2e bd 12 b9 9a 3d 1b fd d3 bd
       -0.07405985 -0.04253298 0.075548306 -0.103510104
000110 13 f9 71 bd 9d f8 8d bd 5a c5 fc 3b 1b 84 15 bd
       -0.059075426 -0.06932185 0.007713956 -0.03650294
000120 70 6f 08 3e ce a4 3a 3d 56 c8 31 bd c8 0b 81 bd
       0.1332376 0.045567326 -0.043403946 -0.06301075
000130 99 08 26 3d 27 0e d5 bd dd 90 cd 3d ea 0e 0c bd
       0.040535543 -0.1040309 0.10037396 -0.03419391
000140 dc 9c a7 bd e2 ff 96 3d b1 24 c6 bd c8 36 9f bc
       -0.081842154 0.073730245 -0.09674967 -0.019435301
000150 23 85 c4 3d ee 28 92 bd db 37 d5 3c 20 50 3f bd
       0.09595706 -0.07136713 0.02602761 -0.046707273
000160 7a ca e9 3c dd f0 37 3d 41 e0 7f bd 94 2d 98 3d
       0.028538931 0.04490744 -0.062469725 0.07430568
000170 9d 9a 1f 3c 2f 4f f6 bd 3a 1c 2e 3d a7 3a 24 bd
       0.0097414525 -0.12026822 0.042507388 -0.040094998
000180 76 0d d8 bd ea 1f 16 bd c8 4d 90 bc 78 d7 83 3d
       -0.105494425 -0.03665153 -0.017615214 0.06437582
000190 f9 c9 16 bd 9d 31 de bd 41 5b d5 3d 93 5b de 3d
       -0.03681371 -0.10849307 0.10417796 0.1085731
0001a0 4b 68 9b bd 8b 6e f0 bd 93 a2 ce bc db 97 ec bd
       -0.07588252 -0.117398344 -0.025224006 -0.11552402
0001b0 ae f3 a3 bd 25 7b aa 39 54 b1 f2 3d 88 c8 b2 3d
       -0.080054626 0.00032516677 0.11850229 0.087296546
0001c0 b1 8c a6 bc d0 e4 81 bd 2a 67 e6 3d be 5d 07 bc
       -0.020330759 -0.06342471 0.11250146 -0.008262096
0001d0 ee 25 62 bd 8c 4e 33 ba 3c 59 18 3d c5 4c ea bd
       -0.055211954 -0.00068400125 0.037194476 -0.11440424
0001e0 e2 17 8f bd a8 53 e3 bd 26 f1 a4 3d f7 c9 83 bd
       -0.06986977 -0.110999405 0.08053808 -0.06435006
0001f0 3a 60 f7 bc da e6 bb 3b f2 11 c2 bd 60 6f 5f 3d
       -0.030197252 0.0057343068 -0.09476079 0.054549575
000200 04 b7 79 bb 4a 2a b2 bd b9 65 6c 3d ce af 3f 3c
       -0.003810347 -0.08699472 0.057714198 0.01169963
000210 3f 59 bf bd a5 57 b8 bd da e2 85 3c a0 39 10 3d
       -0.09343194 -0.09001092 0.016343523 0.035211205
000220 15 85 67 bd 07 77 31 bd f1 57 c8 3c 89 3e 9e 3d
       -0.0565234 -0.043326404 0.024455996 0.077267714
000230 77 cd c3 3b 69 5f e8 bd f2 39 94 bd d5 8b ea bc
       0.005975421 -0.11346323 -0.07237615 -0.02863113
000240 53 98 67 bc f3 64 c4 3d 98 39 bc 3c ca 40 27 bc
       -0.014135438 0.09589567 0.022976682 -0.010208318
000250 fe 54 f2 3d 5b 59 ac 3d f5 e7 75 3d fc 8f 97 3c
       0.11832617 0.08415481 0.060035665 0.018501274
000260 95 cc d7 bd 28 06 34 3c ec d1 c0 3d a4 57 09 bd
       -0.10537068 0.010987796 0.094150394 -0.033530846
000270 21 72 21 3d e5 9f d1 bd da 65 af bd 8d 8a 53 3c
       0.039415482 -0.102355756 -0.085643485 0.012911451
000280 af 86 88 bd de c4 97 3c 15 af cc 3c 4d 32 c1 bd
       -0.06666314 0.01852649 0.02498583 -0.09433422
000290 01 e1 03 3d 91 84 36 bd 0d df 41 bd 25 75 16 3c
       0.032197002 -0.04456002 -0.04733186 0.009183203
0002a0 b6 91 01 bd de aa 4b 3d 0d 3b a3 3c 08 45 8a bd
       -0.0316331 0.0497235 0.019925619 -0.06751448
0002b0 bd 58 04 bd d8 7a 5f bd 44 d1 67 3d b1 d3 c6 3b
       -0.03231119 -0.054560512 0.056596056 0.006067716
0002c0 36 5b f5 bb 89 aa 8e 3d 32 59 9b bb 79 7f a7 3d
       -0.00748768 0.06966121 -0.0047408575 0.0817861
0002d0 23 31 9a bc 8e 1f a3 3d 09 9e 1a bd d2 b0 0a 3e
       -0.018822258 0.07965003 -0.03774837 0.13544014
0002e0 c4 ff e8 bd 6e d3 e1 3d b7 58 c6 bc ce 15 34 bd
       -0.113769084 0.11026655 -0.024212224 -0.043966107
0002f0 06 21 fb 3c 06 de 29 3d 7b bc 5e bb d3 cd 02 be
       0.030655395 0.041471504 -0.0033986855 -0.12773828
000300 2c d4 cd bc 2e 93 1e 3d 9d 3d e9 3d 4d 32 e0 bc
       -0.025125585 0.03871458 0.11388705 -0.027367735
000310 c4 3b a4 bd ac 32 c7 bd 1e c5 24 bd b4 71 8d 3d
       -0.08019212 -0.09726462 -0.040227048 0.06906453
000320 09 08 2e bc fe c2 a7 3c 89 a4 b5 bd 5f 49 c0 bd
       -0.010622033 0.020478722 -0.08869273 -0.093889944
000330 b4 1a 7c bd f2 52 66 bd 52 17 15 bd 84 66 77 3d
       -0.061548904 -0.056231447 -0.036399193 0.0604005
000340 9f 78 4d 3c fa 9a 38 3d 1a 3c e6 ba 47 cc b1 bd
       0.012540965 0.045069672 -0.0017565519 -0.08681541
000350 4c 81 90 bc dd c8 d2 bd 0b 9d ac 3d ed b1 8d 3d
       -0.017639779 -0.10292218 0.08428391 0.06918702
000360 07 fa a1 bc 78 55 fc bd ec 55 b2 3c c0 88 4a 3d
       -0.019772543 -0.12320989 0.021769486 0.04944682
000370 bc 38 d6 3d df d1 30 3d 08 b5 c9 3d 68 72 80 bd
       0.1046004 0.0431689 0.09848982 -0.06271821
000380 70 8b a1 3d e3 5c bc 3b a6 da e8 3d 96 38 d0 bd
       0.07887924 0.0057483776 0.11369829 -0.10167043
000390 24 04 9d 3c 21 42 86 bd 54 fd 90 3d b7 f1 4b 3c
       0.019167013 -0.06555582 0.070795685 0.012447766
0003a0 af 6e 74 bd a0 23 d4 bc 89 22 db bc 59 9f 1e bd
       -0.05967587 -0.025895894 -0.026749866 -0.038726185
0003b0 75 50 50 3d f8 a7 d7 3d 88 62 d6 bc 25 bc 5d 3d
       0.05085798 0.10530084 -0.02617003 0.054134507
0003c0 ef 37 fa 3b ff 28 50 bd 89 b0 89 3d 49 13 c7 bd
       0.0076360623 -0.050820347 0.067231245 -0.09720475
0003d0 d2 cb bd bd 93 2d 8e bd 6c 57 8d bd b7 4e 03 3e
       -0.09267391 -0.06942286 -0.0690144 0.12822996
0003e0 ff b2 b0 3d bf 71 c0 3d 05 c0 ef 3b 3a f3 cd 3d
       0.08627891 0.09396695 0.0073165917 0.100561574
0003f0 da b5 a9 3d 03 1f 54 bd 31 0c fe 3d c8 cb 81 3d
       0.082866386 -0.051787388 0.12404669 0.06337696
